Using cuda:0 device
Computing t-SNE to visualize from 32 to 2 dim - this could take a while..
----------------------------------------------------------------
        Layer (type)               Output Shape         Param #
================================================================
            Conv2d-1           [-1, 64, 16, 16]           1,088
      ConvResBlock-2           [-1, 64, 16, 16]               0
            Conv2d-3            [-1, 128, 8, 8]         131,200
      ConvResBlock-4            [-1, 128, 8, 8]               0
            Conv2d-5            [-1, 256, 4, 4]         524,544
      ConvResBlock-6            [-1, 256, 4, 4]               0
           Flatten-7                 [-1, 4096]               0
            Linear-8                   [-1, 32]         131,104
            Linear-9                   [-1, 32]         131,104
       VAEEncoder-10       [[-1, 32], [-1, 32]]               0
           Linear-11                 [-1, 8192]         270,336
        Unflatten-12            [-1, 128, 8, 8]               0
           Linear-13                   [-1, 64]           2,624
        Unflatten-14              [-1, 1, 8, 8]               0
  ConvTranspose2d-15          [-1, 128, 16, 16]         264,320
  ConvTranspose2d-16          [-1, 256, 32, 32]         524,544
  ConvTranspose2d-17            [-1, 1, 32, 32]           2,305
          Sigmoid-18            [-1, 1, 32, 32]               0
          decoder-19            [-1, 1, 32, 32]               0
================================================================
Total params: 1,983,169
Trainable params: 1,983,169
Non-trainable params: 0
----------------------------------------------------------------
Input size (MB): 0.00
Forward/backward pass size (MB): 2.86
Params size (MB): 7.57
Estimated Total Size (MB): 10.43
----------------------------------------------------------------






Epoch 0: 100%|█| 30/30 [00:13<00:00,  2.24batch/s, loss=0.386, sim_loss=0.324, recon_loss=0.0603, kl_lo
…
