…
Epoch 0: 100%|█| 3/3 [00:00<00:00,  3.04batch/s, loss=0.0552, sim_loss=0.0229, recon_loss=0.0322, kl_lo
/home/matteo/Unsupervised/vaesim_baselines/VAESIM/../../NeuroGEN_Pytorch/utils/callbacks.py:158: UserWarning: Implicit dimension choice for softmax has been deprecated. Change the call to include dim=X as an argument.
  c=torch.nn.functional.softmax(logprobs/0.25)
Epoch 1:   0%|                                                                | 0/3 [00:00<?, ?batch/s]
----------------------------------------------------------------
        Layer (type)               Output Shape         Param #
================================================================
            Conv2d-1           [-1, 64, 16, 16]           1,088
      ConvResBlock-2           [-1, 64, 16, 16]               0
            Conv2d-3            [-1, 128, 8, 8]         131,200
      ConvResBlock-4            [-1, 128, 8, 8]               0
            Conv2d-5            [-1, 256, 4, 4]         524,544
      ConvResBlock-6            [-1, 256, 4, 4]               0
           Flatten-7                 [-1, 4096]               0
            Linear-8                   [-1, 32]         131,104
            Linear-9                   [-1, 32]         131,104
       VAEEncoder-10       [[-1, 32], [-1, 32]]               0
           Linear-11                 [-1, 8192]         270,336
        Unflatten-12            [-1, 128, 8, 8]               0
           Linear-13                   [-1, 64]           2,624
        Unflatten-14              [-1, 1, 8, 8]               0
  ConvTranspose2d-15          [-1, 128, 16, 16]         264,320
  ConvTranspose2d-16          [-1, 256, 32, 32]         524,544
  ConvTranspose2d-17            [-1, 1, 32, 32]           2,305
          Sigmoid-18            [-1, 1, 32, 32]               0
          decoder-19            [-1, 1, 32, 32]               0
================================================================
Total params: 1,983,169
Trainable params: 1,983,169
Non-trainable params: 0
----------------------------------------------------------------
Input size (MB): 0.00
Forward/backward pass size (MB): 2.86
Params size (MB): 7.57
Estimated Total Size (MB): 10.43
----------------------------------------------------------------
Using downloaded and verified file: /home/matteo/.medmnist/pneumoniamnist.npz
…
