…
Epoch 0: 100%|█| 3/3 [00:01<00:00,  2.98batch/s, loss=0.189, sim_loss=0.0312, recon_loss=0.157, kl_loss
/home/matteo/Unsupervised/vaesim_baselines/VAESIM/../../NeuroGEN_Pytorch/utils/callbacks.py:158: UserWarning: Implicit dimension choice for softmax has been deprecated. Change the call to include dim=X as an argument.
  c=torch.nn.functional.softmax(logprobs/0.25)
Epoch 1:   0%|                                                                | 0/3 [00:00<?, ?batch/s]
----------------------------------------------------------------
        Layer (type)               Output Shape         Param #
================================================================
            Conv2d-1          [-1, 128, 16, 16]           2,176
      ConvResBlock-2          [-1, 128, 16, 16]               0
            Conv2d-3            [-1, 256, 8, 8]         524,544
      ConvResBlock-4            [-1, 256, 8, 8]               0
            Conv2d-5            [-1, 384, 4, 4]       1,573,248
      ConvResBlock-6            [-1, 384, 4, 4]               0
           Flatten-7                 [-1, 6144]               0
            Linear-8                   [-1, 32]         196,640
            Linear-9                   [-1, 32]         196,640
       VAEEncoder-10       [[-1, 32], [-1, 32]]               0
           Linear-11                  [-1, 512]          16,896
        Unflatten-12             [-1, 32, 4, 4]               0
           Linear-13                   [-1, 16]             656
        Unflatten-14              [-1, 1, 4, 4]               0
  ConvTranspose2d-15            [-1, 384, 8, 8]         203,136
      BatchNorm2d-16            [-1, 384, 8, 8]             768
             GELU-17            [-1, 384, 8, 8]               0
ConvTransposeBlock-18            [-1, 384, 8, 8]               0
  ConvTranspose2d-19          [-1, 256, 16, 16]       1,573,120
      BatchNorm2d-20          [-1, 256, 16, 16]             512
             GELU-21          [-1, 256, 16, 16]               0
ConvTransposeBlock-22          [-1, 256, 16, 16]               0
  ConvTranspose2d-23          [-1, 128, 32, 32]         524,416
      BatchNorm2d-24          [-1, 128, 32, 32]             256
             GELU-25          [-1, 128, 32, 32]               0
ConvTransposeBlock-26          [-1, 128, 32, 32]               0
  ConvTranspose2d-27            [-1, 1, 32, 32]           1,153
          Sigmoid-28            [-1, 1, 32, 32]               0
         cDecoder-29            [-1, 1, 32, 32]               0
================================================================
Total params: 4,814,161
Trainable params: 4,814,161
Non-trainable params: 0
----------------------------------------------------------------
Input size (MB): 0.00
Forward/backward pass size (MB): 7.66
Params size (MB): 18.36
Estimated Total Size (MB): 26.03
----------------------------------------------------------------
Using downloaded and verified file: /home/matteo/.medmnist/pneumoniamnist.npz
…
